models/best.pt (torch, 2744 bytes, 4 tensors)

conv1.weight f4 [4, 2, 3, 3]
00000000: 83fe 253e 7c1e 6c3e c0ae 57be e30a 32be
00000010: 387f 613e f623 05be d8ef f5ba 0bcf e93d
00000020: 81f2 1a3e b7a2 f6bd f0f5 0ebe a775 f03b
00000030: 65a1 793d 564e 78bd ec65 40be 1330 aa3d
00000040: 10f1 343d 39a8 573e 66b3 163e eb4c 143c
00000050: 4036 52be 184c 613e 14aa 07be a6e4 06be
00000060: af98 70bd d89d d73d 7130 ee3d 37b2 083e
00000070: acbf 513e f7fb ec3d 3221 0abe 8eeb a0bd
00000080: 3bfe c13d 4c64 303e 98d6 a83d eadb 1abd
00000090: 4e21 02bd 9074 203e 182f 533e 2c73 5c3e
000000a0: 65a4 3fbe 3c77 0dbe 1dc7 7c3b 0aea a03c
000000b0: 53cf 90bd abcf 3c3e a0d3 77bd 7ffe c1bd
000000c0: 51ad 21bb e7e7 3f3e 2865 ebbd be8a 19bd
000000d0: 4d27 263c 5e36 b8bb 3bc0 df3d 882f 553d
000000e0: e6b9 c43d 7071 94bd 0f3c bbbc 3f71 a3bd
000000f0: a03c d33d 163e 49be 8865 d13d c6de 073e
00000100: edc1 39be 97bf 32bc 0d76 b2bc e7dd 753d
00000110: 3ac1 90bc 46f9 41be 4274 2a3e a925 febd
0.1621037 0.23058504 -0.21062756 -0.17386965 0.22021186 -0.13002 -0.0018763496 0.114164434
0.1513157 -0.12042754 -0.13961005 0.007338244 0.060944933 -0.060621582 -0.1878888 0.08309951
0.044175208 0.21060266 0.14716873 0.009051542 -0.20528507 0.22001684 -0.13248473 -0.1317316
-0.05873936 0.10528153 0.11630333 0.13349234 0.20483273 0.11571496 -0.13489226 -0.078574285
0.09472319 0.1722576 0.082440555 -0.037807383 -0.031770043 0.15669465 0.20623434 0.2152831
-0.18715055 -0.13815016 0.003857083 0.019642849 -0.07070794 0.18438594 -0.060504556 -0.094723694
-0.0024669955 0.18740807 -0.114939034 -0.03748583 0.010141206 -0.0056217154 0.10925337 0.052047282
0.0960577 -0.07248199 -0.022855787 -0.07980584 0.10314298 -0.1965259 0.10224444 0.13268575
-0.18140383 -0.010909936 -0.021784807 0.060026076 -0.017670263 -0.18942747 0.16645911 -0.12409527

conv1.bias f4 [4]
00000000: b68a 493e b23d 8b3d 1df3 743d ec98 6bbe
0.1968182 0.06798877 0.059802163 -0.23007554

conv6.weight f4 [3, 4, 3, 3]
00000000: 965d 3c3c dcda 0cbe d75f 1abe 164e b43c
00000010: 0080 073d 30bc f5bd 88ef ee3d 5624 80bd
00000020: 0e29 f5bd 926a 0cbe a012 373d d09b 9f3d
00000030: 7842 ddbd 67a1 1dbe 7b94 583d 7014 273d
00000040: 8446 203e c6d9 1b3e 5ec1 8ebd e0bd 063e
00000050: a8ef 15be ab6f 683d 56f5 073a 48b4 963d
00000060: a34f 90bd d709 03be c6f1 003e 94ae 22be
00000070: 001d 7b3b 3fb0 26be 48a0 c43d ff24 17be
00000080: 6e9c 263e eb5d 463c 48b2 d2bd beb5 e63d
00000090: 9694 873c 2365 0dbe cee7 1a3e 9b11 05bd
000000a0: 3692 253d ab71 3d3b eb16 d9bc 1027 03be
000000b0: f02a a73d 8308 ea3d 3a38 18be 56f0 ab3d
000000c0: abd0 0abe 4e1b cabd 4321 f53d 56c9 4bbd
000000d0: 3320 24be f3bf 023e abca 8b3a 2b60 e1bd
000000e0: 0e6a cfbd 57d4 29be 3e34 1fbe 334e ab3d
000000f0: 0417 113e 2ed8 c1bd 0bc1 d7bc 0b88 b03c
00000100: f6c7 b23c 9827 d93d 366f a4bd a41a 10be
00000110: 88c6 bb3d eb02 82bc ae41 b03d 66f4 01bd
00000120: 4333 eb3d d629 ff3d 965d b73d 9f0b 09be
00000130: 66c3 c9bd bbbc 173d a6ba 1d3e dec3 a93d
00000140: fb39 4cbd a6e4 b63d d6d1 d23c 9823 b3bd
00000150: 9ba8 393d b0ab cd3d e8e6 0abe d072 2ebd
00000160: d646 663d f382 eb3d 70b4 fdbd 0bdb d63d
00000170: 70d8 71bd aba6 54bc c089 3e3d a846 d6bd
00000180: ab7f 2f3c 80a7 9bbc 8034 3dbc 13b8 9c3d
00000190: b8c4 d13d 64bf 033e 06fc ba3d f65b 9f3d
000001a0: b829 f7bd 93ba d6bd 36fe 1cbe 23c3 1bbe
0.011496922 -0.13755363 -0.15075622 0.02200989 0.033081055 -0.119987845 0.11666781 -0.062569305
-0.11970721 -0.13712528 0.044695497 0.07793391 -0.108036935 -0.15393601 0.052875977 0.040790975
0.156519 0.15219793 -0.069704756 0.13158369 -0.14642203 0.05674712 0.0005186399 0.07358605
-0.070464395 -0.12796722 0.12592229 -0.15886909 0.0038316846 -0.1627817 0.09600884 -0.14760207
0.1627061 0.012107353 -0.10287911 0.11265133 0.016550343 -0.13808112 0.15127489 -0.032487493
0.04042264 0.0028906863 -0.026500186 -0.1280787 0.081624866 0.11427405 -0.14865199 0.0839545
-0.13556163 -0.09868489 0.11969235 -0.049752556 -0.16027908 0.12768535 0.0010665258 -0.11004671
-0.1012765 -0.16584907 -0.15547273 0.08364525 0.14168936 -0.09465061 -0.026337167 0.021549245
0.021823864 0.10603255 -0.08029024 -0.14072663 0.09168726 -0.015870532 0.086062774 -0.031727217
0.11484387 0.124591514 0.08953397 -0.1338334 -0.098517224 0.03704522 0.15403232 0.08289312
-0.049859982 0.0893033 0.025734823 -0.08747023 0.04532681 0.100425124 -0.13564646 -0.042589962
0.0562199 0.11499586 -0.12387931 0.10490998 -0.0590443 -0.01297919 0.046518087 -0.10462695
0.010711591 -0.019000769 -0.0115481615 0.07652297 0.10242599 0.12865978 0.09130101 0.07781212
-0.12068504 -0.10484805 -0.15331349 -0.15211158

conv6.bias f4 [3]
00000000: 800d c5bb e8d9 843d c3b9 dd3d
-0.006013572 0.06486875 0.10826447
